…
it into batches and create the output\u00a0labels.</p>\n<p>This is the only thing different from the thing we did in MNIST. Now we can define a model and train\u00a0it.</p>\n<h3>2. Model</h3>\n<a href=\"https://medium.com/media/55a50e981ad248e00e8a88b6861234ac/href\">https://medium.com/media/55a50e981ad248e00e8a88b6861234ac/href</a><pre>Model: \"sequential\"<br>_________________________________________________________________<br>Layer (type)                 Output Shape              Param #   <br>=================================================================<br>conv2d (Conv2D)              (None, 110, 110, 256)     93184     <br>_________________________________________________________________<br>max_pooling2d (MaxPooling2D) (None, 55, 55, 256)       0         <br>_________________________________________________________________<br>conv2d_1 (Conv2D)            (None, 51, 51, 128)       819328    <br>_________________________________________________________________<br>max_pooling2d_1 (MaxPooling2 (None, 25, 25, 128)       0         <br>_________________________________________________________________<br>batch_normalization (BatchNo (None, 25, 25, 128)       512       <br>_________________________________________________________________<br>conv2d_2 (Conv2D)            (None, 23, 23, 96)        110688    <br>_________________________________________________________________<br>conv2d_3 (Conv2D)            (None, 21, 21, 64)        55360     <br>_________________________________________________________________<br>max_pooling2d_2 (MaxPooling2 (None, 10, 10, 64)        0         <br>_________________________________________________________________<br>dropout (Dropout)            (None, 10, 10, 64)        0         <br>_________________________________________________________________<br>conv2d_4 (Conv2D)            (None, 8, 8, 16)          9232      <br>_________________________________________________________________<br>max_pooling2d_3 (MaxPooling2 (None, 4, 4, 16)          0         <br>_________________________________________________________________<br>flatten (Flatten)            (None, 256)               0         <br>_________________________________________________________________<br>dense (Dense)                (None, 128)               32896     <br>_________________________________________________________________<br>dropout_1 (Dropout)          (None, 128)               0         <br>_________________________________________________________________<br>dense_1 (Dense)              (None, 32)                4128      <br>_________________________________________________________________<br>dense_2 (Dense)              (None, 1)                 33        <br>=================================================================<br>Total params: 1,125,361<br>Trainable params: 1,125,105<br>Non-trainable params: 256<br>_________________________________________________________________</pre>\n<p>In this one, I would recommend you create your own model. This will give the whole view of how models are created for different datasets. The only thing dif
…
ef\">https://medium.com/media/449566c666182a0dbc4e8eca079adb3c/href</a><p>Please go through the Keras documentation, you can experiment with more perimeters of this Con2D Layers and MaxPooling Layers. Just make sure that the no of parameters are decreasing every layer. If you visualize this model you will see what I\u00a0mean,</p>\n<pre>Model: \"sequential\"<br>_________________________________________________________________<br>Layer (type)                 Output Shape              Param #   <br>=================================================================<br>conv2d (Conv2D)              (None, 26, 26, 256)       2560      <br>_________________________________________________________________<br>max_pooling2d (MaxPooling2D) (None, 13, 13, 256)       0         <br>_________________________________________________________________<br>conv2d_1 (Conv2D)            (None, 11, 11, 128)       295040    <br>_________________________________________________________________<br>batch_normalization (BatchNo (None, 11, 11, 128)       512       <br>_________________________________________________________________<br>conv2d_2 (Conv2D)            (None, 9, 9, 96)          110688    <br>_________________________________________________________________<br>conv2d_3 (Conv2D)            (None, 7, 7, 64)          55360     <br>_________________________________________________________________<br>max_pooling2d_1 (MaxPooling2 (None, 3, 3, 64)          0         <br>_________________________________________________________________<br>dropout (Dropout)            (None, 3, 3, 64)          0         <br>_________________________________________________________________<br>flatten (Flatten)            (None, 576)               0         <br>_________________________________________________________________<br>dense (Dense)                (None, 128)               73856     <br>_________________________________________________________________<br>dropout_1 (Dropout)          (None, 128)               0         <br>_________________________________________________________________<br>dense_1 (Dense)              (None, 32)                4128      <br>_________________________________________________________________<br>dense_2 (Dense)              (None, 10)                330       <br>=================================================================<br>Total params: 542,474<br>Trainable params: 542,218<br>Non-trainable params: 256<br>_________________________________________________________________</pre>\n<p>As you can see, the number of parameters are decreasing as we go from starting layer to another. Now the work will be done by the training\u00a0method.</p>\n<h3>
…
